resources/actuator_net_with_history.pt (torch, 11983 bytes, 7 tensors)

layers.0.weight f4 [32, 6]
-0.8155264 -1.0004914 -1.5734757 0.19103068 0.026239136 -0.022630388 -0.858249 -0.07110403
0.1185665 0.020968886 0.0034830666 -0.019840159 0.8778234 -1.049026 -0.0381374 0.003607724
-0.15335204 -0.17278601 0.36235535 -0.32315296 -0.8951081 0.21628009 -0.012322408 -0.09363013
-1.5564595 -0.6889528 -0.75014776 -0.13666321 -0.04280329 -0.028644646 0.07960852 0.5372108
0.6319222 0.11253843 -0.1283125 -0.024851076 2.5815973 0.58673316 -0.44218877 -0.022871437
-0.009358134 0.018959617 -0.7136504 -0.8038976 -1.089997 0.025799591 0.09726867 0.018996648
-0.22850639 0.21905473 0.869741 0.27565002 -0.24338897 -0.037775245 -0.43837968 -0.30354127
-0.53373617 0.014593676 -0.06836355 0.041965287 0.8382275 0.43042862 -0.109121904 -0.14094125
-0.05429718 0.029340535 -0.49618417 -0.25797278 0.3021348 0.1388319 -0.104818046 0.026064593
1.448881 0.67127585 0.36604682 -0.20603931 0.10044636 -0.0077115544 0.8712727 -0.6305091
-0.28082585 -0.017018683 0.18923055 0.1858125 -0.93434817 -0.6307784 -0.2985285 0.00682613
-0.08789179 -0.09987481 -0.6641831 -0.40214068 -0.3481252 0.1876184 -0.042572547 0.01284799
-0.64353544 -0.04270439 -0.36656156 0.032908227 0.11226229 -0.28422275 -0.068860196 0.27625552
0.9948416 -0.1630212 0.07163614 -0.046736382 0.8257058 0.17377494 0.53074896 -0.28189185
-0.026927982 0.034541313 0.2878128 -0.6227363 -0.67145187 0.19816473 0.004810501 -0.15641889
1.0214975 0.24265715 0.358255 0.011958341 0.046145156 -0.33733037 0.3379892 -0.45797843
-0.22732937 0.25136673 -0.048845455 0.01402577 0.566247 -0.16013806 0.09821016 -0.019613147
0.001254259 0.05561805 -0.24799563 -0.3996826 -0.15236863 -0.22740373 0.1278431 0.2326873
-0.66186035 -0.2829155 0.002082052 0.03164853 -0.0077534853 -0.023548406 -0.31978264 -0.27220383
-0.49084818 -0.12070514 0.1536707 0.070032574 0.05500552 -0.17890036 -0.05018083 0.12969388
0.16978024 -0.23939283 0.14468253 0.4223436 1.3680847 0.0102463765 -0.07684099 -0.0019771387
0.8000992 -0.1610716 -0.6165215 -0.14579462 -0.047526844 0.19434746 -0.22845444 -1.0729718
-0.26860806 -0.08622603 -0.0419987 -0.01212802 0.438441 -0.33083114 -0.7385625 -0.015811699
-0.06030636 -0.19920133 0.6642547 0.16123852 -0.7656965 -0.14753717 0.013137849 -0.015410893
00000000: 57c6 50bf 1a10 80bf a767 c9bf 8c9d 433e
00000010: 75f3 d63c 5d63 b9bc 35b6 5bbf fd9e 91bd
00000020: fed2 f23d f1c6 ab3c 2944 643b d487 a2bc
00000030: 09b9 603f 7c46 86bf f635 1cbd 916f 6c3b
00000040: 5108 1dbe d1ee 30be a486 b93e 4e74 a5be
00000050: ce25 65bf 8778 5d3e ede3 49bc 27c1 bfbd
00000060: 113a c7bf 365f 30bf af09 40bf 71f1 0bbe
00000070: 8152 2fbd 2da8 eabc cb09 a33d a686 093f
00000080: a7c5 213f 8c7a e63d 5a64 03be 7c94 cbbc
00000090: e438 2540 2534 163f 9166 e2be e15c bbbc
000000a0: dc52 19bc 3351 9b3c cbb1 36bf 3ccc 4dbf
000000b0: 0685 8bbf aa59 d33c cc34 c73d dc9e 9b3c
000000c0: 94fd 69be e24f 603e 59a7 5e3f 0022 8d3e
000000d0: f53a 79be 37ba 1abd 4d73 e0be c369 9bbe
000000e0: efa2 08bf 501a 6f3c 3002 8cbd cbe3 2b3d
000000f0: 1496 563f 2461 dc3e 4e7b dfbd e752 10be
00000100: b866 5ebd 905b f03c da0b febe 0215 84be
00000110: 6ab1 9a3e f329 0e3e d8aa d6bd 6a85 d53c
00000120: ef74 b93f bcd8 2b3f 7d6a bb3e f8fb 52be
00000130: d2b6 cd3d 35b1 fcbb ba0b 5f3f 0b69 21bf
00000140: 68c8 8fbe c46a 8bbc a7c5 413e a245 3e3e
00000150: 7131 6fbf b17a 21bf bad8 98be bbad df3b
00000160: 9c00 b4bd 2a8b ccbd e707 2abf 62e5 cdbe
00000170: 773d b2be 0a1f 403e 8d60 2ebd 6080 523c
00000180: bdbe 24bf ccea 2ebd f5ad bbbe c7ca 063d
00000190: c6e9 e53d a585 91be 9306 8dbd 5d71 8d3e
000001a0: f0ad 7e3f 08ef 26be f8b5 923d a66e 3fbd
000001b0: 7561 533f 0ff2 313e 2adf 073f 2154 90be
000001c0: 1298 dcbc 317b 0d3d 335c 933e a56b 1fbf
000001d0: 45e4 2bbf b2eb 4a3e 68a1 9d3b 462c 20be
000001e0: 6ec0 823f 1e7b 783e 336d b73e ebec 433c
000001f0: b402 3d3d 91b6 acbe ec0c ad3e 267c eabe
00000200: 08c9 68be 24b3 803e 2c12 48bd 58cc 653c
00000210: 90f5 103f 3bfb 23be 6922 c93d c0ab a0bc
00000220: f365 a43a c1cf 633d 91f2 7dbe 33a3 ccbe
00000230: 8606 1cbe 86dc 68be 4de9 023e 9445 6e3e
00000240: ae6f 29bf 4dda 90be 0973 083b e4a1 013d
00000250: f310 febb 96e8 c0bc 8dba a3be 4d5e 8bbe
00000260: 7450 fbbe 4234 f7bd da5b 1d3e 3d6d 8f3d
00000270: 784d 613d a831 37be 6a8a 4dbd 79ce 043e
00000280: dfda 2d3e 6523 75be a827 143e 6c3d d83e
00000290: 661d af3f 6be0 273c cf5e 9dbd e292 01bb
000002a0: 4dd3 4c3f f4ef 24be 5ad4 1dbf 2f4b 15be
000002b0: 82ab 42bd 0503 473e f6ef 69be 2457 89bf
000002c0: ff86 89be 4697 b0bd d406 2cbd 9ab4 46bc
000002d0: 577b e03e b362 a9be 6f12 3dbf 8987 81bc
000002e0: cd03 77bd 6ffb 4bbe 990c 2a3f b61b 253e
000002f0: b004 44bf fc13 17be 2240 573c f87d 7cbc

layers.0.bias f4 [32]
0.003717593 0.14238696 -0.11413631 0.051113494 -0.7443094 -0.084671296 -0.0005405329 -0.006839599
-0.33159477 0.30482283 -0.31402004 0.2138819 -0.036139086 0.119519725 0.4475411 0.2771087
0.23125799 -0.1587861 0.33600175 -0.21287666 0.38230985 -0.07230147 -0.28060326 0.21953617
0.24655984 0.121048495 0.118557304 0.002784417 0.005840281 0.20296904 0.38825488 -0.44826522
00000000: dca2 733b e3cd 113e 4cc0 e9bd 625c 513d
00000010: 108b 3ebf 2568 adbd 8db2 0dba b71e e0bb
00000020: cac6 a9be bd11 9c3e 3cc7 a0be db03 5b3e
00000030: 9406 14bd c2c6 f43d 1b24 e53e 31e1 8d3e
00000040: e5ce 6c3e d398 22be 6c08 ac3e 57fc 59be
00000050: 1ebe c33e cb12 94bd 3bab 8fbe 17ce 603e
00000060: 2f7a 7c3e 46e8 f73d 2cce f23d c47a 363b
00000070: d45f bf3b 1ed7 4f3e 58c9 c63e 0583 e5be

layers.2.weight f4 [32, 32]
0.049304828 -0.8780769 -0.12628597 0.29268044 -0.07061474 0.251762 0.4317906 -0.046532635
0.0788699 -0.32101703 0.2557989 -0.47006062 0.13807057 -0.119348384 -0.0040898453 -0.2579671
0.12148768 -0.30173716 0.28616157 0.36951357 0.18237557 -0.33729213 0.23833935 -0.37711972
-0.49830738 -0.40130532 -0.1325231 -0.40227872 -0.033917457 -0.31197968 0.15390559 0.3088263
0.049396828 1.3813483 0.1879435 -0.27648106 0.054054525 -0.27074686 -0.44945395 0.07865986
-0.11174229 0.39547485 -0.42962053 0.50728446 -0.09142065 0.028971294 0.14456056 0.2794246
0.1555164 0.3925987 -0.21654518 -0.41624036 -0.16623066 0.43889862 -0.3381925 0.38175866
0.68768656 0.46270287 0.23461129 0.37537983 -0.0705495 0.12308026 -0.0030671405 -0.34101108
0.32740304 0.25506955 0.53518164 0.111678906 0.1755838 -0.7401549 -0.0038272175 0.22219782
-0.16164923 0.3816704 0.020727228 -0.07567144 -0.09286542 0.34802225 0.061931524 -0.012066189
0.335947 0.071865365 -0.25385535 0.11586979 0.033255875 0.14335169 -0.23475915 -0.024215475
0.26704228 0.39016098 0.06963889 -0.5161011 0.7608223 0.25727287 0.23694985 -0.0928442
0.10846411 -1.7245923 -0.177394 0.06510295 -0.07491216 0.41469887 0.3502638 0.032980993
0.5817708 -1.3791074 0.32450894 -0.38581958 0.17782247 -0.18397573 -0.61637706 -0.35759616
-0.2799118 0.1592076 0.22798991 0.44352406 0.09148251 -0.10703 0.6196343 -0.3129868
-1.0432093 -0.6336963 -0.020918058 -0.03865197 -0.4234929 -0.3660346 -0.32096896 0.2592889
0.5840856 -0.11991629 0.09307654 0.372635 -0.3807907 -0.016768912 -0.5533296 0.28124282
0.17737877 -0.07693999 0.08670186 0.026300358 0.22626896 0.21589199 -0.071383044 -0.16266638
-0.19691668 0.092279606 0.16933453 -0.47328195 0.3981291 -0.000853953 0.07041866 0.15755539
-0.15004566 0.034325734 -0.14219615 0.42688826 0.15512969 0.24052858 0.15589403 0.1415816
0.2892918 0.1208298 0.20331362 0.182989 -0.22512025 -0.13078566 -0.6012939 0.21709026
0.24616137 -0.10350368 0.042244658 0.0021129823 0.43645328 0.05158214 -0.37749457 -0.1468611
-0.027362974 0.21091169 -0.05276976 -0.13004899 0.19054763 0.08820843 -0.027818857 -0.19839478
-0.046170898 -0.040318698 0.3558219 0.25915456 -0.5165786 0.1563249 0.058825616 -0.043529145
0.12040865 0.13921939 0.32941288 0.20181772 0.0941914 -0.39465275 -0.3041948 0.045185156
-0.11701566 0.27165446 -0.25491327 0.38811567 -0.24704216 0.40177056 -0.070504054 0.34863406
0.043351814 -0.20379889 -0.36125743 -0.13463098 -0.22595875 0.3980647 -0.17342064 0.026859079
0.19826695 0.33351105 0.37568423 0.00026286833 0.30291322 0.22986303 -0.08488325 -0.2216557
1.5275537 0.20092653 -0.22764915 0.3210527 0.35292932 0.12051299 -1.892917 1.2736266
0.42557064 0.03231242 0.1665424 -0.088083245 -0.15414296 -0.015356403 0.13349885 -0.20571657
-0.053213287 -0.10624828 -0.12724388 -0.2763564 -0.38132277 0.31081998 -0.09748602 -0.0815884
0.09535296 0.02706725 0.08490738 0.37625793 -0.12520401 0.71892077 0.23447837 0.21940905
00000000: dcf3 493d a6c9 60bf 1c51 01be 36da 953e
00000010: 769e 90bd f3e6 803e a813 dd3e 0199 3ebd
00000020: 8b86 a13d 585c a4be 13f8 823e c9ab f0be
00000030: 5f62 0d3e ed6c f4bd 1c04 86bb 4414 84be
00000040: 88ce f83d 4b7d 9abe c583 923e e230 bd3e
00000050: a9c0 3a3e 8eb1 acbe 3b0f 743e d615 c1be
00000060: 2522 ffbe e477 cdbe 23b4 07be 7af7 cdbe
00000070: 08ed 0abd cdbb 9fbe 6d99 1d3e 7b1e 9e3e
00000080: 5454 4a3d 05d0 b03f 4374 403e ed8e 8dbe
00000090: 4768 5d3d 559f 8abe d41e e6be 6c18 a13d
000000a0: 24d9 e4bd ae7b ca3e 39f7 dbbe 65dd 013f
000000b0: c03a bbbd 3555 ed3c af07 143e be10 8f3e
000000c0: b13f 1f3e b202 c93e 05be 5dbe 751d d5be
000000d0: 5f38 2abe 52b7 e03e 9127 adbe df75 c33e
000000e0: 3a0c 303f 64e7 ec3e f13d 703e c931 c03e
000000f0: 427c 90bd 8111 fc3d 1402 49bb 0199 aebe
00000100: 5fa1 a73e 7a98 823e aa01 093f e9b7 e43d
00000110: 3dcc 333e cb7a 3dbf 0ed2 7abb d387 633e
00000120: 6087 25be 4d6a c33e 26cc a93c a1f9 9abd
00000130: 3a30 bebd f92f b23e e9ab 7d3d 44b1 45bc
00000140: 3f01 ac3e 262e 933d 54f9 81be 244d ed3d
00000150: 5037 083d c9ca 123e b464 70be 885f c6bc
00000160: c4b9 883e 2ec3 c73e d69e 8e3d 341f 04bf
00000170: 40c5 423f 45b9 833e fba2 723e 1a25 bebd
00000180: 6e22 de3d 71bf dcbf c6a6 35be b254 853d
00000190: 8c6b 99bd 6953 d43e c755 b33e 1417 073d
000001a0: eeee 143f 9786 b0bf 0926 a63e 258a c5be
000001b0: 1817 363e 2264 3cbe e3ca 1dbf d816 b7be
000001c0: 9950 8fbe 5107 233e 3076 693e 9615 e33e
000001d0: 2f5b bb3d 8b32 dbbd 5aa0 1e3f ce3f a0be
000001e0: e287 85bf ec39 22bf 595c abbc 8751 1ebd
000001f0: 10d4 d8be e368 bbbe 0b56 a4be 84c1 843e
00000200: a286 153f ac96 f5bd ea9e be3d 04ca be3e
00000210: 00f7 c2be f55e 89bc 02a7 0dbf 0fff 8f3e
00000220: c8a2 353e b792 9dbd bf90 b13d d973 d73c
00000230: 0db3 673e ca12 5d3e 4631 92bd 0492 26be
00000240: 87a4 49be 17fd bc3d 0866 2d3e 0352 f2be
00000250: 94d7 cb3e d1db 5fba a937 903d 3356 213e
00000260: 92a5 19be 2499 0c3d de9b 11be 1991 da3e
00000270: 51da 1e3e 204d 763e afa2 1f3e c4fa 103e
00000280: 0e1e 943e 9d75 f73d 7231 503e 7861 3b3e
00000290: ec85 66be adec 05be 66ee 19bf e94c 5e3e
000002a0: ba11 7c3e bdf9 d3bd bc08 2d3d f679 0a3b
000002b0: ce76 df3e cb47 533d f846 c1be c262 16be
000002c0: 5128 e0bc 3cf9 573e 1b25 58bd 902b 05be
000002d0: eb1e 433e 9fa6 b43d 5fe4 e3bc 0028 4bbe
000002e0: b21d 3dbd 3825 25bd 4a2e b63e e8af 843e
000002f0: 7f3e 04bf a213 203e 21f3 703d 9e4b 32bd
00000300: cf98 f63d 878f 0e3e cea8 a83e 4ea9 4e3e
00000310: 6ce7 c03d ed0f cabe 6cbf 9bbe 1214 393d
00000320: e8a5 efbd 4b16 8b3e fe83 82be 19b7 c63e
00000330: 9ff8 7cbe dfb4 cd3e 6e64 90bd 2a80 b23e
00000340: ac91 313d a8b0 50be bcf6 b8be b4dc 09be
00000350: bb61 67be 23cf cb3e 2e95 31be 9207 dc3c
00000360: 7e06 4b3e f6c1 aa3e af59 c03e 97d1 8939
00000370: 7117 9b3e 3761 6b3e 45d7 adbd b6f9 62be
00000380: e186 c33f afbf 4d3e dc1c 69be 0561 a43e
00000390: 27b3 b43e 84cf f63d 1b4b f2bf 3206 a33f
000003a0: 65e4 d93e 075a 043d 178a 2a3e fd64 b4bd
000003b0: a7d7 1dbe 6c99 7bbc ecb3 083e 5da7 52be
000003c0: 2df6 59bd b398 d9bd 384c 02be 967e 8dbe
000003d0: bd3c c3be cc23 9f3e c0a6 c7bd d217 a7bd
000003e0: 6a48 c33d 23bc dd3c ece3 ad3d e1a4 c03e
000003f0: 7b35 00be 310b 383f 191b 703e c4ac 603e

layers.2.bias f4 [32]
-0.109986894 0.11980321 0.068787254 -0.16664985 -0.18422744 -0.050231572 0.20890115 -0.29097953
-0.104030944 0.13431239 -0.24627726 0.3004653 0.13554524 -0.15711579 -0.11274325 -0.1653306
0.35268608 -0.16384068 0.3315081 0.2878045 -0.15735884 0.056023713 -0.07102072 0.30397725
-0.2076105 0.21419044 0.2236714 -0.094327666 0.09872729 -0.15022786 0.14087406 0.09560624
00000000: cf40 e1bd 635b f53d 55e0 8c3d 42a6 2abe
00000010: 1ea6 3cbe 9fbf 4dbd 2fea 553e 45fb 94be
00000020: 2d0e d5bd 3089 093e 1b30 7cbe 96d6 993e
00000030: 5fcc 0a3e f6e2 20be efe5 e6bd 6d4c 29be
00000040: 4593 b43e dac5 27be 6ebb a93e 1d5b 933e
00000050: ad22 21be 1f79 653d 5073 91bd e8a2 9b3e
00000060: d997 54be bd54 5b3e 1e0a 653e dd2e c1bd
00000070: 8931 ca3d 55d5 19be 4a41 103e 34cd c33d

layers.4.weight f4 [32, 32]
0.24275562 -0.30010176 -0.19841577 0.33197156 -0.02694669 -0.8512898 -0.10912706 -1.2826337
1.4951358 -0.20201412 0.2753662 0.24034148 -0.2873403 -0.34272107 -0.36830893 0.13010438
0.272074 -0.5850336 0.25530884 -0.13340963 0.31093425 0.26448467 -0.9948379 -0.2628402
0.28341874 0.9496606 -0.2626491 -0.26766774 1.1243333 0.15856759 0.22630447 -0.054057673
0.16676609 -0.11155612 0.11965345 0.013521392 -0.48971722 -1.1702412 -0.032545898 -1.0739353
0.7402504 0.10092838 -0.04319204 0.50697947 -0.0937618 -0.93915653 -1.1906358 0.271125
0.5654026 0.07322005 0.71204066 -0.6906653 0.07061556 0.4772554 -0.20757212 -0.5788975
0.48419723 0.3757705 -0.13318141 -0.46999803 0.46549723 -0.11262498 0.041428156 0.23737714
-0.3214943 0.24716625 0.26416677 -0.3597601 0.10728459 -0.02559879 0.5696383 0.15326191
1.1268538 1.6116313 -0.20369549 -0.29189876 0.36549732 0.11100098 -0.43121833 -0.6873315
-0.2682973 0.41773248 -0.37594238 0.36420584 -0.5203096 -0.04840912 0.009010578 0.11150507
-0.26090473 -0.35712868 0.27974713 0.7446865 0.057692874 -0.5346945 1.1997727 -0.8494107
-0.3500594 0.40552315 0.80979747 -0.6061593 0.072380796 0.10467962 0.39491206 0.017862463
0.22286728 0.3791695 -0.4096147 -0.26618588 0.81119233 0.30163327 -0.15288027 -0.46063393
-0.16070798 0.2186736 -0.07045775 0.47216538 -0.9614769 -0.13497391 0.31225085 0.3259494
-0.3242216 -0.16461892 0.36017767 0.23143545 -0.20558262 -0.9694429 0.5427025 -0.44444668
0.65784234 -0.5475731 -0.64801115 0.78363985 -0.28203663 -0.10947239 -0.6748928 -0.019975124
-0.13077064 -0.06201335 0.50171983 0.18433492 -0.920262 -0.3053561 -0.2858817 0.8184923
0.19145922 -0.12548578 0.16748728 -0.5038445 0.65755814 0.18978953 -0.3061761 -0.3238413
0.4553648 0.14504018 -0.3801192 -0.28220177 0.15365012 0.5782284 -0.55382615 0.3768853
-0.281769 0.221864 0.031518094 -0.22764583 2.881837 0.8674329 0.20664474 1.9167359
-0.77615356 0.15952253 -0.15069418 -0.2534603 0.19316405 0.58983773 2.7954774 -0.23817986
-0.28060302 0.09132361 -0.29143298 0.47129452 -0.20275284 -0.624421 1.5839643 0.34317
-0.38528606 -0.99620897 0.14807703 0.26715523 -1.1454935 -0.06286537 0.1284508 1.0555683
1.2311587 -1.446223 -0.500115 0.8256869 -0.08011307 -0.2904224 -1.1953722 0.11831858
0.0023175147 -0.12708241 1.2052791 -0.0021380675 -1.2432055 -0.4723447 -0.3777989 0.92666733
0.023457311 -0.05689463 -0.08348411 -0.2967836 1.1087947 0.09334162 -0.20640048 -0.3052418
0.7437834 0.027405864 -1.0644819 -0.0721029 -0.015892752 0.59558785 -0.39441305 0.30447632
-0.94863904 0.7962114 0.5148003 -0.77017 0.2629351 0.27132082 1.0736116 -0.10298259
0.08811945 0.39549595 -0.71239555 -0.18625546 1.5061557 0.26979062 0.33087048 -0.646103
-0.0649422 0.054468647 0.02532456 0.31173345 -1.0921589 -0.08001601 0.14501734 0.45368955
-0.64031327 -0.019713063 0.749141 0.02023878 -0.21795975 -0.53388035 0.7948641 -0.34883153
00000000: ee94 783e f0a6 99be 812d 4bbe 2df8 a93e
00000010: 4ebf dcbc 21ee 59bf 027e dfbd 572d a4bf
00000020: 9c60 bf3f cadc 4ebe ccfc 8c3e 141c 763e
00000030: 451e 93be 2379 afbe fd92 bcbe 153a 053e
00000040: 494d 8b3e c3c4 15bf d7b7 823e 899c 08be
00000050: c632 9f3e 896a 873e b2ad 7ebf fe92 86be
00000060: 431c 913e f51c 733f f179 86be bf0b 89be
00000070: 27ea 8f3f 8b5f 223e 5cbc 673e 946b 5dbd
00000080: bbc4 2a3e 8977 e4bd de0c f53d d488 5d3c
00000090: 37bc fabe 77ca 95bf d94e 05bd b676 89bf
000000a0: 0d81 3d3f 8ab3 ce3d 23ea 30bd 68c9 013f
000000b0: 3006 c0bd 906c 70bf c166 98bf e5d0 8a3e
000000c0: 3abe 103f 65f4 953d 4c48 363f 71cf 30bf
000000d0: e49e 903d d25a f43e c98d 54be a032 14bf
000000e0: b3e8 f73e fe64 c03e b560 08be 95a3 f0be
000000f0: a755 ee3e eda7 e6bd 92b0 293d fe12 733e
00000100: e79a a4be 2619 7d3e de40 873e 7a32 b8be
00000110: 06b8 db3d 8eb4 d1bc d1d3 113f b1f0 1c3e
00000120: bf3c 903f ef49 ce3f 8d95 50be c173 95be
00000130: 7722 bb3e 7b54 e33d a6c8 dcbe f5f4 2fbf
00000140: 445e 89be 08e1 d53e 857b c0be 3079 ba3e
00000150: 0333 05bf a448 46bd 1aa1 133c c55c e43d
00000160: 4e95 85be 92d9 b6be 043b 8f3e c6a3 3e3f
00000170: 5d4f 6c3d bde1 08bf 2792 993f fb72 59bf
00000180: fc3a b3be bba0 cf3e e34e 4f3f 422d 1bbf
00000190: 623c 943d 4562 d63d ea31 ca3e 4d54 923c
000001a0: 5237 643e 8122 c23e 05b9 d1be 8449 88be
000001b0: 4daa 4f3f ad6f 9a3e a58c 1cbe 36d8 ebbe
000001c0: a290 24be f9eb 5f3e 274c 90bd a9bf f13e
000001d0: 5a23 76bf 9a36 0abe 58df 9f3e d7e2 a63e
000001e0: 6000 a6be dd91 28be 3569 b83e 6afd 6c3e
000001f0: 4084 52be 692d 78bf 8dee 0a3f 848e e3be
00000200: 5b68 283f c02d 0cbf 0fe4 25bf 9f9c 483f
00000210: 1b67 90be 0f33 e0bd c6c5 2cbf dfa2 a3bc
00000220: bde8 05be b601 7ebd b670 003f 4bc2 3c3e
00000230: 4a96 6bbf a257 9cbe 165f 92be b688 513f
00000240: e30d 443e 587f 00be c981 2b3e f4fb 00bf
00000250: bb55 283f 3058 423e 1dc3 9cbe 87ce a5be
00000260: 9325 e93e 6a85 143e fc9e c2be c07c 90be
00000270: 7556 1d3e c706 143f 8dc7 0dbf 1cf7 c03e
00000280: 0744 90be 5130 633e 1e19 013d fd1b 69be
00000290: 0470 3840 1510 5e3f ae9a 533e 9a57 f53f
000002a0: 00b2 46bf e059 233e 934f 1abe 8cc5 81be
000002b0: cccc 453e 9bff 163f 1ae9 3240 6ce5 73be
000002c0: 33ab 8fbe df07 bb3d b436 95be 844d f13e
000002d0: 719e 4fbe 0eda 1fbf 58bf ca3f fab3 af3e
000002e0: 3744 c5be 8d07 7fbf 81a1 173e 92c8 883e
000002f0: 889f 92bf 8fbf 80bd 9b88 033e dd1c 873f
00000300: 9c96 9d3f d61d b9bf 8907 00bf 3760 533f
00000310: 5212 a4bd 3fb2 94be f501 99bf 0351 f23d
00000320: 72e1 173b e421 02be 9646 9a3f d21e 0cbb
00000330: 5c21 9fbf 2ad7 f1be db6e c1be 123a 6d3f
00000340: 8c29 c03c 580a 69bd b8f9 aabd 05f4 97be
00000350: fcec 8d3f e429 bf3d a65a 53be a748 9cbe
00000360: 9768 3e3f 4382 e03c f140 88bf afaa 93bd
00000370: 8431 82bc 7278 183f 82f0 c9be 52e4 9b3e
00000380: 02da 72bf 83d4 4b3f f4c9 033f dc29 45bf
00000390: 6e9f 863e 90ea 8a3e 1b6c 893f 89e8 d2bd
000003a0: f877 b43d 727e ca3e 8e5f 36bf c0b9 3ebe
000003b0: b6c9 c03f ff21 8a3e db67 a93e 0267 25bf
000003c0: 6b00 85bd 841a 5f3d 7475 cf3c 879b 9f3e
000003d0: ddcb 8bbf 6fdf a3bd 6d7f 143e ff49 e83e
000003e0: 92eb 23bf 4a7d a1bc b4c7 3f3f cccb a53c
000003f0: d730 5fbe 62ac 08bf 377c 4b3f 0c9a b2be

layers.4.bias f4 [32]
0.16689205 0.012463092 -0.23437491 -0.04121141 0.112409614 -0.17195588 -0.11968095 0.07425327
0.08497694 -0.12382238 0.2195704 -0.094924755 0.55506605 0.21733826 -0.05457056 -0.12358865
-0.53473556 -0.61165583 -0.2623939 -0.17274563 -0.039441295 -0.10753448 -0.33539745 0.07556082
0.12491301 0.65283525 0.08718969 -0.3261026 0.048604514 -0.48583776 -0.46214998 -0.28738964
00000000: c0e5 2a3e ff31 4c3c faff 6fbe 4ccd 28bd
00000010: 0337 e63d 3415 30be 491b f5bd 1912 983d
00000020: 6408 ae3d 9796 fdbd 10d7 603e e967 c2bd
00000030: cf18 0e3f ec8d 5e3e 6185 5fbd 0c1c fdbd
00000040: 6ee4 08bf 7a95 1cbf 7e58 86be 3be4 30be
00000050: 328d 21bd 0a3b dcbd 37b9 abbe a2bf 9a3d
00000060: 64d2 ff3d 3620 273f 8290 b23d ecf6 a6be
00000070: 8715 473d babf f8be ec9e ecbe bc24 93be

layers.6.weight f4 [1, 32]
1.9417493 1.7315081 -1.3876338 -1.519389 1.5231255 -2.1242397 1.4805543 -1.5096922
-1.3542776 -1.5503846 1.7963758 1.3810865 1.5888729 1.683214 -1.5508952 -1.3506037
-1.583888 -1.5571274 2.6817868 -1.3427682 1.4688832 -1.559059 -1.6622001 1.4635441
1.977948 1.5679393 -1.2904916 -1.9052126 2.0784118 -1.5409282 -1.5523465 -1.6016681
00000000: 3e8b f83f 0fa2 dd3f fc9d b1bf 577b c2bf
00000010: c7f5 c23f 8bf3 07c0 ce82 bd3f 983d c1bf
00000020: f858 adbf 0173 c6bf a4ef e53f 71c7 b03f
00000030: 3060 cb3f 8e73 d73f bc83 c6bf 95e0 acbf
00000040: d8bc cabf f34f c7bf 65a2 2b40 d4df abbf
00000050: 5d04 bc3f 3f8f c7bf f9c2 d4bf 6a55 bb3f
00000060: 662d fd3f 3cb2 c83f d42e a5bf 02de f3bf
00000070: b304 0540 233d c5bf 4ab3 c6bf 7603 cdbf
